model/deployment/primary_model/model_name.pth (torch, 43877 bytes, 7 tensors)

game_embedding.weight f4 [3, 1]
0	0x3cb79749	0.022411006
1	0xbf57d79c	-0.8431337
2	0x3f31d619	0.6946731

fc1.weight f4 [128, 13]
0	0xbd8b003e	-0.067871556
1	0xbef0c0bc	-0.47022045
2	0x3f402c49	0.75067574
3	0xc05c9579	-3.446623
4	0xbf1e34ae	-0.6179913
5	0xc08f6995	-4.4816384
6	0xbd922188	-0.07135302
7	0x40c36925	6.106585
8	0xbdd2862b	-0.10279497
9	0xbe42cb3f	-0.19022845
10	0x3db6f1b8	0.08932823
11	0xbd71ce0d	-0.059034396
12	0xbe5b66a8	-0.21425879
13	0xbd2cc1c3	-0.042176973
14	0xbf0afb4f	-0.54289716
15	0xbed471c2	-0.4149304
16	0xbf4da277	-0.80326027
17	0xbefab3b1	-0.4896522
18	0x3df39d9b	0.11895295
19	0xbdd97a9a	-0.106190875
20	0x3eb5783a	0.35443288
21	0x3e60f1c2	0.21967223
22	0x3df42a2b	0.119221054
23	0xbdf82666	-0.12116699
24	0xbd90d714	-0.07072273
25	0x3dd98f81	0.10623074
26	0xbe8bffd9	-0.27343634
27	0x3d02f6a3	0.031973492
28	0x3e102df7	0.14080034
29	0xbe180541	-0.14845754
30	0xbea1e1a9	-0.31617478
31	0x3ba487cf	0.0050210725
32	0xbdc19278	-0.09451765
33	0xbbabfe5d	-0.0052488283
34	0x3d277472	0.040882535
35	0xbc155b59	-0.009116017
36	0x3c077a37	0.008268884
37	0x3e85d9d2	0.26142746
38	0x3e7250a5	0.23663576
39	0xbfe0e710	-1.7570515
40	0xc1eb90b3	-29.445654
41	0xc09149c8	-4.5402565
42	0x3fdc9df0	1.7235699
43	0xbf85a406	-1.0440681
44	0xc1cb3e2c	-25.405357
45	0x3c5dbcf3	0.013533819
46	0xbfcd9b44	-1.6063008
47	0xbdb1ba78	-0.08678144
48	0xbe356522	-0.1771436
49	0xbe595af9	-0.2122611
50	0x3e02954e	0.12752268
51	0xbd555d9b	-0.052091222
52	0xbde1706a	-0.110077694
53	0x3ead742f	0.33877704
54	0x3c1f452d	0.009721083
55	0xbea90d2b	-0.3301786
56	0xbeb3237b	-0.34988007
57	0xbe4eb77e	-0.20187184
58	0xbe269cf0	-0.16270804
59	0x3cf243e4	0.029573388
60	0xbe2de4e0	-0.1698184
61	0xbce6fcfb	-0.028196802
62	0x3e540a87	0.20707141
63	0x3e66a4fb	0.22523873
64	0x3d1879ba	0.037225462
65	0x3e197ac9	0.14988245
66	0x3ce81018	0.028327987
67	0xbdd88713	-0.10572638
68	0x3dd17668	0.10227662
69	0x3c1e561d	0.009664086
70	0xbeb6e279	-0.3571966
71	0xbe84b25a	-0.2591732
72	0xbe8eadca	-0.27866966
73	0xbe36bdc0	-0.17845821
74	0x3e12be67	0.14330445
75	0x3e369280	0.17829323
76	0x3e43618e	0.19080183
77	0xbe141979	-0.14462842
78	0xbe4058c0	-0.18783855
79	0x3e5d5cc7	0.21617423
80	0x3ecc6ee5	0.39928356
81	0xbf1f92b3	-0.6233322
82	0xbe95f5c4	-0.29289067
83	0xbece6f33	-0.40319213
84	0xbe2554d3	-0.16145639
85	0x3e564990	0.209265
86	0x3e63933c	0.22224134
87	0x3db8867e	0.09010027
88	0x3d7a9242	0.06117464
89	0xbd8099ed	-0.06279359
90	0x3ebfbb58	0.3744762
91	0xbdacc016	-0.08435075
92	0xbe92e062	-0.28686816
93	0xbe37eb18	-0.17960775
94	0xbe94185c	-0.28924835
95	0xbc8e219b	-0.017350009
96	0xbe2d6b65	-0.16935499
97	0xbe89a1f3	-0.2688137
98	0xbe24eabe	-0.16105172
99	0x3e65a8c3	0.22427659
100	0x3d849292	0.064732686
101	0xbe4a9541	-0.19783498
102	0xbe1aa01d	-0.15100141
103	0xbcee9f27	-0.029128624
104	0x3d0d973f	0.034568068
105	0x3e5dcda6	0.2166048
106	0xbe3ef85f	-0.18649434
107	0xbea8f6cf	-0.330008
108	0x3c359b7b	0.011084433
109	0xbea31ef9	-0.31859568
110	0xbe367d4a	-0.17821231
111	0x3dba42c2	0.09094764
112	0xbe851ed8	-0.26000094
113	0x3e8957cb	0.26824793
114	0xbdda0a49	-0.10646493
115	0xbdb6590d	-0.08903704
116	0x3e0bfc74	0.13670522
117	0xbd27ba26	-0.04094901
118	0xbd99a436	-0.07502024
119	0x3d1c5363	0.03816546
120	0xbf2df384	-0.679497
121	0xbdbb2f99	-0.09139938
122	0xbec1e42d	-0.37869397
123	0xbce11af4	-0.027478673
124	0x3f4940a7	0.78614277
125	0x3e01702b	0.12640445
126	0x3e86d039	0.26330736
127	0x3e23b442	0.15986732
128	0x3db1deca	0.08685072
129	0x3e5806ff	0.21096419
130	0x3d1858fe	0.037194245
131	0xbef71c83	-0.4826394
132	0xbf03193d	-0.51210386
133	0xbe1eed5d	-0.15520234
134	0xbf7f7f1a	-0.99803317
135	0xbed20570	-0.41019773
136	0xbe8fe472	-0.28103977
137	0x3e988967	0.2979233
138	0x3b0a6d94	0.0021122443
139	0xbe0a66ee	-0.13515827
140	0xbd92262e	-0.071361884
141	0xbe890499	-0.2676132
142	0x3d941ba7	0.07231837
143	0x3db6af86	0.08920197
144	0xbd39449d	-0.04523145
145	0x3d5714c6	0.052510045
146	0x3ded821b	0.11597081
147	0xbd59d033	-0.05317707
148	0xbdec1959	-0.11528272
149	0xbd297a8c	-0.041376635
150	0xbd9e1411	-0.07718671
151	0x3dabf680	0.083966255
152	0x3d82cd9f	0.06386875
153	0x3dbed8d9	0.09318704
154	0xbc06bb0d	-0.008223307
155	0xbd74b0b7	-0.05973884
156	0xbdc1c78b	-0.09461888
157	0xbe3e7e31	-0.18602826
158	0xbe802709	-0.2502978
159	0xbeb439cb	-0.35200343
160	0x3c4feb49	0.012690374
161	0xbe5f33a2	-0.2179704
162	0xbe235028	-0.15948546
163	0x3c57604d	0.0131455185
164	0x3d1b0952	0.037850685
165	0x3c2e3fbe	0.0106353145
166	0x3e41b701	0.18917467
167	0x3de485dd	0.11158345
168	0xbda2befb	-0.07946583
169	0xbe2666ba	-0.16250125
170	0x3eb24486	0.34817904
171	0xbe10d58b	-0.1414396
172	0x3a320f51	0.00067924435
173	0xbe69bce8	-0.22825968
174	0xbed3b4f0	-0.41348982
175	0x3b68d6a5	0.0035528329
176	0xbeced834	-0.40399325
177	0x3e1c19e5	0.15244253
178	0xbda0ae93	-0.078457974
179	0xbe4e6124	-0.20154244
180	0xbdb99425	-0.090614595
181	0xbcfb3a12	-0.030667339
182	0xbe8b24fa	-0.27176648
183	0xbef9eef8	-0.4881513
184	0xbee2e5e8	-0.4431603
185	0x3eb035ce	0.3441605
186	0x3d8ab2b9	0.0677237
187	0xbea76ef1	-0.3270183
188	0xbe8049b6	-0.25056237
189	0xbe60bd93	-0.21947317
190	0x3d973665	0.07383422
191	0xbd5f2fe3	-0.054489028
192	0x3de7a7d9	0.11311311
193	0x3e697efa	0.22802344
194	0x3d2afa29	0.041742478
195	0xbe28a054	-0.1646741
196	0xbf020e95	-0.508035
197	0xbed844b3	-0.42239913
198	0xbefacef4	-0.48986018
199	0x3d90a382	0.07062437
200	0xbe12020d	-0.14258595
201	0xbd45c638	-0.04828474
202	0xbc447842	-0.011991562
203	0xbe88d488	-0.26724648
204	0x3e4cd2eb	0.20002334
205	0x3e6fec26	0.23429927
206	0x3cc67b55	0.024228731
207	0x3daab639	0.083355375
208	0xbe87d514	-0.26529753
209	0x3d074ae2	0.0330304
210	0x3d566031	0.05233783
211	0xbd9a0fd6	-0.07522552
212	0x3d9d8d85	0.07693008
213	0x3e2cd56b	0.16878287
214	0x3de4eb74	0.111777216
215	0xbe933bd0	-0.2875657
216	0x3d506cc0	0.050884962
217	0x3e022696	0.12710032
218	0x3e8011a4	0.2501346
219	0x3e617128	0.22015822
220	0xbd500bb6	-0.05079242
221	0x3edb6b8f	0.42855498
222	0x40532812	3.2993207
223	0x3f4ca703	0.7994234
224	0xc00555a7	-2.0833528
225	0xbfbc135d	-1.4693409
226	0x4145f5cd	12.37251
227	0x3e8af684	0.27141201
228	0x3f83f500	1.0309143
229	0x3e247670	0.16060805
230	0x3c619f68	0.013770916
231	0xbe0a829f	-0.1352639
232	0x3e2fedcd	0.17180558
233	0xbfce0c3c	-1.6097484
234	0xbca6f0b7	-0.020378454
235	0x3d8fa54a	0.07013948
236	0x3c5bc144	0.013412777
237	0xbe8319e5	-0.25605693
238	0xbbb3d10d	-0.0054875673
239	0x3e12759d	0.14302678
240	0x3b89aa19	0.0042011854
241	0x3d67fb36	0.056636058
242	0xbe8dbaef	-0.27681682
243	0x3c749d7e	0.014930127
244	0xbdf5b5c5	-0.119975604
245	0x3e8ba7aa	0.27276355
246	0x3da10470	0.078621745
247	0xbd8385ab	-0.064219795
248	0x40885c5f	4.261276
249	0xbfef76c4	-1.8708119
250	0x3f9516d3	1.164759
251	0x403cc42d	2.9494736
252	0xc19e948e	-19.822536
253	0xbd8dab16	-0.06917398
254	0xc08984e4	-4.297472
255	0xbddb9221	-0.10721231

fc1.bias f4 [128]
0	0xbff4d6dc	-1.912807
1	0xbe1ba478	-0.15199459
2	0xbe712a71	-0.23551346
3	0x3f7d86c2	0.9903375
4	0xbdfc1773	-0.1230916
5	0xbea4f442	-0.32217604
6	0xbebde1c9	-0.37086323
7	0xbd5b4694	-0.053534105
8	0xbea8062b	-0.32817206
9	0xbed21478	-0.4103124
10	0xbef543d9	-0.47903326
11	0xbe5c7870	-0.21530318
12	0xbdde5efe	-0.10857962
13	0xbd941331	-0.07230223
14	0xbe8ddfee	-0.27709907
15	0xbdf2ba83	-0.118519805
16	0xbe902095	-0.28149858
17	0x3dfb7f32	0.1228012
18	0xbe39ec5e	-0.18156573
19	0xbf3f480e	-0.7471932
20	0xbe8aa3fe	-0.2707824
21	0xbdb70b80	-0.0893774
22	0xbe218d43	-0.15776543
23	0xbe862a5d	-0.26204196
24	0xbef1ebfb	-0.4725035
25	0xbdfaf63c	-0.12253997
26	0xbcf22aba	-0.02956139
27	0xbe40afe9	-0.18817104
28	0xbef171f3	-0.4715725
29	0xbe33e44a	-0.17567554
30	0xbe47b64d	-0.19503136
31	0xc02b881d	-2.6801827
32	0xbeefc357	-0.4682872
33	0xbf54d310	-0.83134556
34	0xbeb4394f	-0.35199973
35	0xbd951b2f	-0.072805755
36	0xbf282e4e	-0.65695655
37	0xbe9b1013	-0.302857
38	0xbdc8ea4a	-0.09810312
39	0x3fcc4436	1.5958316
40	0xbeab94ad	-0.33511868
41	0xbe369f67	-0.17834245
42	0xbe53601f	-0.20642136
43	0xbe035beb	-0.12828033
44	0xbf0a81d3	-0.54104346
45	0xbf13867f	-0.576271
46	0xbe67e5c2	-0.2264624
47	0xbec84233	-0.39113006
48	0xbf3a4692	-0.7276393
49	0xbeec239b	-0.46120915
50	0xbfa91c89	-1.3211833
51	0xbe5fc48a	-0.21852317
52	0xbe8cfe29	-0.2753766
53	0xbe1627c7	-0.14663611
54	0xbe82448d	-0.25442925
55	0xbe31d217	-0.17365299
56	0xbe76c682	-0.24099162
57	0xbe317e09	-0.17333235
58	0x3f3ef527	0.7459282
59	0xbee18b8d	-0.4405178
60	0xbe9c4b35	-0.30526128
61	0xbd475a4d	-0.048670102
62	0xbda5f260	-0.0810287
63	0xbf249821	-0.6429463
64	0xbe72eea6	-0.2372385
65	0xbe8b0770	-0.27154112
66	0xbfbd278b	-1.4777693
67	0xbe9f55eb	-0.31120238
68	0xbe6d5894	-0.23178321
69	0xbe82084e	-0.2539696
70	0xbe6e66ca	-0.23281398
71	0xbe4f76d9	-0.2026018
72	0xbe450f8b	-0.1924421
73	0x3f41a5d0	0.75643635
74	0xbe3c1ade	-0.18369624
75	0xbe618559	-0.22023524
76	0xbe4fdebc	-0.2029981
77	0xbeb79949	-0.35859135
78	0xbf18bd72	-0.5966407
79	0xbe517670	-0.20455337
80	0xc06a6a12	-3.662724
81	0xbed3de5f	-0.41380593
82	0xbe333cc6	-0.17503652
83	0xbe43ea85	-0.19132431
84	0xbebf9ba0	-0.3742342
85	0xbe8c513b	-0.27405724
86	0xbe439f48	-0.1910373
87	0xbec38336	-0.38186044
88	0xbe2638aa	-0.16232553
89	0xbe44e65e	-0.19228503
90	0xbce437f5	-0.027858714
91	0xbdf0e78a	-0.117629126
92	0xbe5a1b9c	-0.21299595
93	0xbf0cd561	-0.5501309
94	0xbeeb91d8	-0.46009707
95	0xbe7f6ce2	-0.24943879
96	0xbe7c085a	-0.24612561
97	0x3fe81cde	1.813381
98	0x3e4bb6c2	0.19893935
99	0xbfc8549f	-1.5650824
100	0xbe436fde	-0.19085643
101	0xbe142c24	-0.14469963
102	0xbe8733e1	-0.26406768
103	0xbde47cd0	-0.111566186
104	0xbdc5f988	-0.09666735
105	0xbd5a7082	-0.053329952
106	0xbe50f749	-0.20406832
107	0xbd855e87	-0.0651217
108	0xbe2bc94d	-0.16776009
109	0xbe28cdfb	-0.16484825
110	0xbea50da6	-0.32236975
111	0xbebce617	-0.36894295
112	0x3f076c0e	0.52899253
113	0xbf04dcb1	-0.5189925
114	0xbd4b6270	-0.049654424
115	0xbebf2f7a	-0.3734091
116	0xbea95a9b	-0.3307694
117	0xbdbdfbe8	-0.09276563
118	0xbe194386	-0.14967164
119	0xbe956941	-0.29181865
120	0xbe329b52	-0.17442062
121	0xbe808028	-0.25097775
122	0xbe7be913	-0.2460063
123	0xbea401b0	-0.32032537
124	0xbe7285e9	-0.23683895
125	0xbe79d014	-0.24395782
126	0xbeb96c29	-0.36215332
127	0x3ec22e13	0.37925777

fc2.weight f4 [64, 128]
0	0xbdd17165	-0.102267064
1	0xbd3ed4b2	-0.04658956
2	0xbd1e5502	-0.03865529
3	0xbd5a5ca6	-0.053311013
4	0xbcfd15fb	-0.03089427
5	0x3ca36908	0.019947544
6	0xbd6befbe	-0.057601683
7	0x3a05a947	0.00050987717
8	0x3c4aedf6	0.012385836
9	0xbcff3251	-0.031151922
10	0x3c621b43	0.013800445
11	0xbca0e7dd	-0.019641811
12	0xbd6f47dc	-0.05841814
13	0xbd4ae15b	-0.049531322
14	0xbcf5508f	-0.02994564
15	0x3cfe4766	0.031039905
16	0x3c4993ba	0.012303287
17	0xbdbaaeca	-0.091153696
18	0x3d04b9e5	0.032403845
19	0xba6f4f35	-0.0009128929
20	0x3d008329	0.031375084
21	0x3bfa8215	0.0076449015
22	0x3db07831	0.08616675
23	0x3d870f51	0.06594718
24	0xbc3f7070	-0.011684522
25	0xbcbc060c	-0.022952102
26	0xbda1ad31	-0.07894362
27	0xbd2bc7b6	-0.041938506
28	0xbd9d46e6	-0.076795384
29	0x3d641418	0.055683225
30	0xbdbea9bf	-0.0930972
31	0x3d23499c	0.03986512
32	0x3d4b59c8	0.04964617
33	0x3c0c4101	0.00856042
34	0xbe00d121	-0.12579776
35	0xbd17096e	-0.036874227
36	0x3c89b3e8	0.016809419
37	0xbc1c35ea	-0.0095343385
38	0x3ca72132	0.020401571
39	0x3ca43334	0.020043947
40	0xbdeaf3a5	-0.11472253
41	0xbd039db1	-0.032132808
42	0x3d9bdd1d	0.076105334
43	0xbd419868	-0.047264487
44	0x3cfbe813	0.03075031
45	0xbcb81c1e	-0.022474345
46	0x3c07203d	0.008247432
47	0x3d05ea3a	0.03269408
48	0x3dc7563b	0.09733244
49	0xbe35abc1	-0.177413
50	0x3cda698f	0.026661662
51	0xbda79810	-0.081833005
52	0x3d156288	0.03647092
53	0x3d67e450	0.05661422
54	0x3d9ce579	0.07660956
55	0x3ab2f8f9	0.0013654522
56	0xbdbffd80	-0.09374523
57	0x3c8d6db0	0.017264217
58	0x3d41bb58	0.047297806
59	0xbd92ff7a	-0.071776345
60	0xbdb6c535	-0.08924333
61	0xbc85f891	-0.016353877
62	0x3d2529e0	0.04032314
63	0x3d217a8f	0.03942352
64	0x3d522322	0.051303037
65	0xbbb414af	-0.0054956297
66	0xbdc2833b	-0.094976865
67	0xbdebd0e4	-0.11514452
68	0x3dadeff7	0.08493035
69	0x3d661700	0.05617428
70	0xbd958724	-0.07301167
71	0xbd29ab55	-0.04142316
72	0x3d9f4283	0.07776358
73	0xbc907b29	-0.017636852
74	0xbdd107d1	-0.10206569
75	0xbc74ab2e	-0.014933391
76	0xbdcc2ebf	-0.099698536
77	0x3d808539	0.0627541
78	0x3c80c212	0.01571754
79	0xbdb2124a	-0.086948946
80	0xbdab5d0b	-0.08367356
81	0xbd6a6e44	-0.057234064
82	0x3d5a48a9	0.05329195
83	0xbbf8e016	-0.0075950725
84	0x3d9be9dc	0.076129645
85	0xbd6fd16d	-0.058549333
86	0xbd1d1eba	-0.03835938
87	0xbdfe098e	-0.12404166
88	0x3c982cb5	0.018576005
89	0xbd8315be	-0.06400631
90	0xbc9b2a09	-0.018940942
91	0x3d8a4112	0.067506924
92	0xbd83de00	-0.064388275
93	0xbbe2e3f4	-0.006924147
94	0x3d017025	0.03160109
95	0xb8a5d0ad	-7.906682e-05
96	0x3c33faa3	0.010985049
97	0xbe44f095	-0.192324
98	0xbcaa1b00	-0.020764828
99	0xbd90fa55	-0.07078997
100	0x3d8224e2	0.06354691
101	0xbcbb153e	-0.022837278
102	0x3d9d901e	0.07693504
103	0xbcfe6269	-0.031052785
104	0x3cdcb272	0.026940558
105	0xbc0f40dc	-0.008743491
106	0x3cc5e98c	0.024159215
107	0xbc90f517	-0.017694993
108	0x3d965f42	0.07342388
109	0x3d80195c	0.06254837
110	0x3d923975	0.07139865
111	0x3c71aab4	0.014750171
112	0xbdddfc95	-0.10839192
113	0x3c069042	0.008213105
114	0x3d3058a9	0.043053303
115	0xbd52bc9a	-0.051449396
116	0xbb175165	-0.0023089286
117	0x3d73db2a	0.059535183
118	0xbd1d1bc6	-0.038356565
119	0xbc0457b2	-0.008077549
120	0x3d357920	0.044304967
121	0xbd7bd67e	-0.061483853
122	0xbdcea446	-0.100899264
123	0x3d1757c7	0.036948945
124	0x3bd23299	0.006414723
125	0xbd60aeb7	-0.05485412
126	0x3cb8090b	0.02246525
127	0xbd24736b	-0.040149134
128	0xbecbaba0	-0.39779377
129	0xbdd7dd30	-0.10540235
130	0xbd73ac5d	-0.05949055
131	0xbab46004	-0.0013761525
132	0x3dd3a89a	0.103348926
133	0x3d674073	0.056457948
134	0x3bf7cce3	0.007562266
135	0xbd99df63	-0.07513311
136	0xbcbfcc00	-0.023412704
137	0xbe177cfd	-0.14793773
138	0xbe6e612f	-0.2327926
139	0x3d33fb48	0.043940812
140	0x3cc017b0	0.023448795
141	0xbcc10617	-0.023562474
142	0x3daf5905	0.08561901
143	0xbe0f6277	-0.14002405
144	0x3c860aa3	0.016362494
145	0xbe301d1d	-0.17198606
146	0x3c817278	0.015801653
147	0xbe0d3d78	-0.1379298
148	0xbcd2d07d	-0.02573418
149	0xbeab6c9b	-0.33481297
150	0xbe8c7284	-0.27431118
151	0x3d43aa4e	0.047769837
152	0xbe0f959c	-0.14021915
153	0xbcdb2e50	-0.026755482
154	0xbea756ad	-0.32683316
155	0xba8c11f1	-0.0010686499
156	0xbd8bf131	-0.06833113
157	0x3e401af4	0.18760282
158	0xbd81a961	-0.063311346
159	0xbd092ed8	-0.03349194
160	0x3d434014	0.04766853
161	0x3d0c37c9	0.03423289
162	0xbe806c94	-0.2508284
163	0xbd18c164	-0.037293807
164	0x3d0a4a45	0.033762235
165	0xb989880c	-0.0002623204
166	0xbdd41322	-0.10355212
167	0xbd640222	-0.055666097
168	0xbe1a7e51	-0.15087248
169	0xbe5764f8	-0.2103461
170	0xbcbfb387	-0.023401035
171	0x3cfc70c3	0.030815488
172	0xbe938d8f	-0.28818938
173	0xbe6e91a9	-0.23297752
174	0x3d78f821	0.06078351
175	0xbb9950dc	-0.0046788286
176	0x3ca32d3a	0.019919027
177	0xbed91c40	-0.42404366
178	0xbd94f67e	-0.07273577
179	0xbc986b58	-0.018605873
180	0xbe252473	-0.16127186
181	0xbe449351	-0.19196822
182	0xbd3c10ea	-0.045914568
183	0xbc9266b4	-0.017871238
184	0xbe473fa5	-0.19457872
185	0xbe7a6063	-0.24450831
186	0xbea093f0	-0.31362867
187	0xbe2d649c	-0.1693291
188	0xbd5582dd	-0.052126754
189	0xbe311db9	-0.17296495
190	0x3db2ae93	0.08724704
191	0xbe7b54b1	-0.24544026
192	0x3d2e998b	0.0426269
193	0xbe05bfb9	-0.13061418
194	0xbe84a7ca	-0.25909263
195	0xbd9f39f7	-0.07774728
196	0x3ca5a212	0.020218883
197	0xbddb5b22	-0.107107416
198	0x3db0a5b8	0.08625358
199	0xbebfd7ab	-0.3746923
200	0xbe01bd65	-0.12669905
201	0xbe8e3383	-0.27773675
202	0x3d5a67fb	0.05332182
203	0x3d01baf6	0.03167244
204	0xbdcf5498	-0.10123557
205	0xbdded73a	-0.10880895
206	0x3da579d6	0.08079879
207	0xbdfd284c	-0.12361202
208	0xbe491d29	-0.1964003
209	0xbea93840	-0.33050728
210	0x3da591ce	0.08084451
211	0xbd40fbbd	-0.047115076
212	0xbe75b742	-0.23995689
213	0xbe809e33	-0.25120696
214	0xbe001526	-0.12508067
215	0xbe96fcbc	-0.29489696
216	0xbe4cccb3	-0.19999962
217	0x3d5a1b5f	0.05324876
218	0xbead2328	-0.33815885
219	0xbdefcd1a	-0.11709042
220	0xbb5404fc	-0.0032351604
221	0xbecffdb4	-0.40623248
222	0xbe5164c1	-0.20448591
223	0x3cb5c558	0.022188827
224	0xbd268d8e	-0.04066234
225	0xbe64f661	-0.22359611
226	0x3d9c802d	0.07641635
227	0xbe43a3be	-0.19105431
228	0xbc6f0f1e	-0.014591007
229	0x3d120616	0.035650335
230	0xbe22c037	-0.15893637
231	0xbdf88be4	-0.12136057
232	0x3ca5fb7d	0.02026152
233	0x3de26610	0.11054623
234	0x3e963720	0.29338932
235	0xbe02e266	-0.12781677
236	0xbdc1071f	-0.09425186
237	0xb92efa97	-0.00016687285
238	0x3d8bcfd0	0.068267465
239	0xbe7ff85a	-0.24997082
240	0xbe403d5a	-0.18773404
241	0xbe46cad3	-0.19413309
242	0x3d4a0ac9	0.04932669
243	0x3c8e98a7	0.017406775
244	0x3cdef4ae	0.027216282
245	0xbd6fe323	-0.058566224
246	0xbe8d2bcb	-0.27572474
247	0xbd4439ac	-0.047906563
248	0xbcc348d9	-0.023838447
249	0x3d0dd405	0.034626026
250	0xbe33b241	-0.17548467
251	0xbebb83d5	-0.36624017
252	0xbd6d04a1	-0.057865743
253	0x3d51a23e	0.051180117
254	0x3da82e49	0.08211953
255	0xbe9f3603	-0.31095895

fc2.bias f4 [64]
0	0xbdb1da26	-0.08684187
1	0xbde0edc2	-0.10982849
2	0xbdf04f0a	-0.117338255
3	0xbd463a82	-0.04839564
4	0xbe114048	-0.14184678
5	0xbd20c9a9	-0.039254818
6	0xbe2614dd	-0.16218896
7	0xbd75a62c	-0.059972927
8	0xbe1af58a	-0.15132728
9	0xbe334b40	-0.17509174
10	0xbfede3a3	-1.8585094
11	0xbdc4d08d	-0.096100904
12	0xbe4eb60b	-0.20186631
13	0xbddc6dd0	-0.107631326
14	0xbd895e2c	-0.06707415
15	0xbf37eff5	-0.7185052
16	0xbe93379f	-0.28753373
17	0xbdbd80ac	-0.09253058
18	0xbe8e5900	-0.27802277
19	0xbff50957	-1.9143475
20	0xbe6cc49d	-0.23121877
21	0xbe857294	-0.2606398
22	0xbdbf0d25	-0.09328679
23	0xbde91ecf	-0.113828294
24	0xbed97113	-0.4246908
25	0xbda96636	-0.08271448
26	0xbe7dd67d	-0.24788852
27	0xbdd09cf1	-0.10186184
28	0xbe067e57	-0.13134132
29	0xc022d6c0	-2.5443573
30	0xbe09acd2	-0.13444832
31	0xbe1a2027	-0.15051328
32	0xbe7b5d6c	-0.24547356
33	0xbd71789f	-0.058952924
34	0xbd97601e	-0.0739138
35	0xbdf75c16	-0.12078111
36	0xc00605e6	-2.09411
37	0xbddac087	-0.10681253
38	0xbe0a35cc	-0.13497084
39	0x3e46f7aa	0.19430414
40	0xbe2d0ce1	-0.16899444
41	0xbdc6110b	-0.096712194
42	0xbde9a8be	-0.11409138
43	0xbdf69a3e	-0.12041138
44	0xbd1f7f37	-0.03893968
45	0xbe0dcb3c	-0.13847059
46	0xbce06c27	-0.027395321
47	0xbe68e71d	-0.22744413
48	0xbe3c20f6	-0.18371949
49	0x3ec09cb0	0.37619543
50	0xc06f5abc	-3.739913
51	0xc0051a4c	-2.07973
52	0xbcc4d88d	-0.02402904
53	0xc021bdc6	-2.5272079
54	0xbe5572b3	-0.20844536
55	0xbdb2f365	-0.0873783
56	0xbf5b4d05	-0.856644
57	0xbc9ee8d6	-0.019398134
58	0xbf6d76fd	-0.92759687
59	0xbe1eefac	-0.15521115
60	0xbe236508	-0.15956509
61	0xc061da38	-3.528944
62	0xbda81e4f	-0.08208906
63	0xbe147323	-0.14497046

fc3.weight f4 [3, 64]
0	0xbdecad36	-0.11556475
1	0x3def8fcc	0.11697349
2	0x3b674890	0.0035291053
3	0x3df6c990	0.12050164
4	0x3c21328b	0.009838711
5	0x3aaea5bb	0.0013324538
6	0xbde4aa05	-0.11165241
7	0x3e0c4fa3	0.13702254
8	0x3f1d774e	0.6151017
9	0xbd87b78f	-0.06626808
10	0xbf3f1bb6	-0.7465166
11	0xbfa7545f	-1.3072623
12	0x3db3bb24	0.087759286
13	0xbd5197c2	-0.05117012
14	0x3e45a367	0.19300614
15	0x3f364461	0.7119809
16	0xbcb6e8f6	-0.022327881
17	0xbd0caa1e	-0.034341924
18	0x3dffd4be	0.12491749
19	0x3e421eb8	0.18957031
20	0xbe165d68	-0.14684069
21	0xbdc461e8	-0.09588987
22	0x3ca68df0	0.020331353
23	0x3d8dec0d	0.06929789
24	0xbdd8cda7	-0.105861
25	0xbd1e8775	-0.0387034
26	0xbd8d3024	-0.06893948
27	0xbd512e30	-0.05106944
28	0xbe1dafe6	-0.15399131
29	0x3d8fe79c	0.07026598
30	0x3c5ed2fb	0.013600106
31	0xbcb1c3dd	-0.02169984
32	0xbe7144b8	-0.2356137
33	0x3c83f8d6	0.016109865
34	0xbdd934d0	-0.10605776
35	0x3d94c6ff	0.07264518
36	0x3e8012a9	0.25014237
37	0x3d3c09f0	0.045907915
38	0xbd1ee819	-0.038795564
39	0x3e1959ea	0.14975706
40	0x3d23d0b6	0.039993964
41	0x3d98a1f8	0.07452768
42	0x3c7d6890	0.015466824
43	0xbccc17be	-0.024913665
44	0xbd072d6a	-0.033002295
45	0x3ac06e1f	0.0014681256
46	0xbba1a283	-0.004932703
47	0x3dc8d931	0.09807051
48	0x3d99d5db	0.07511493
49	0xbf48a1f3	-0.78372115
50	0xbdcd6660	-0.10029292
51	0xbf067b96	-0.5253233
52	0x3afcdf72	0.0019292666
53	0xbe59101f	-0.21197556
54	0x3dbc6ad1	0.09200061
55	0xbd650a41	-0.055917982
56	0x3d041976	0.032250844
57	0xbd962603	-0.07331469
58	0xbfa323e4	-1.2745328
59	0xbb5aef10	-0.0033406653
60	0xbd87b111	-0.066255696
61	0xc0077feb	-2.1171825
62	0x3d568e2e	0.052381687
63	0xbda11904	-0.078660995
64	0x3c85fb16	0.016355079
65	0x3e209328	0.15681136
66	0xbbeb98e2	-0.007189856
67	0x3d034e40	0.032057047
68	0xbcc059a6	-0.023480248
69	0x3c35f71f	0.011106282
70	0xbd265696	-0.04060992
71	0xbe04c0c4	-0.12964159
72	0x3f1d62ea	0.61479056
73	0x3bd54769	0.006508757
74	0xc00918d1	-2.1421397
75	0xbf449746	-0.76793325
76	0x3d3d4b4a	0.04621438
77	0xbd1e0099	-0.03857479
78	0x3d27c3fd	0.040958393
79	0x3f37df81	0.71825415
80	0x3ca6a4aa	0.02034219
81	0xbdc86839	-0.09785504
82	0xbc9db32a	-0.019250471
83	0xbf8bf2f3	-1.0933517
84	0x3e128f01	0.14312364
85	0x3c808278	0.015687212
86	0xbd399eee	-0.045317583
87	0x3d0bea5d	0.034159053
88	0xbd2081ca	-0.039186276
89	0xbe4104da	-0.18849507
90	0x3cede602	0.02904034
91	0xbda6d074	-0.08145228
92	0xbc7a81e3	-0.0152897565
93	0x3e3f4dff	0.18682097
94	0x3a738292	0.0009289171
95	0x3c6e6dd9	0.014552557
96	0xbe3a3ab9	-0.18186463
97	0xbbf78d1a	-0.0075546624
98	0xbe0dc0c7	-0.1384307
99	0x3dcda9a4	0.10042122
100	0x3e80f82a	0.25189334
101	0x3c930c61	0.017950239
102	0x3d1270a2	0.035751946
103	0x3e1b6bc6	0.15177831
104	0x3dd6ad4a	0.10482271
105	0xbd163b0d	-0.03667741
106	0xbcf82cb0	-0.030294746
107	0x3d2c61d2	0.042085476
108	0x3d0d63fa	0.034519173
109	0x3e3c02c6	0.18360433
110	0xbd850397	-0.06494825
111	0xbc8d6dfe	-0.017264362
112	0xbca20ac1	-0.019780518
113	0xbd4bc838	-0.04975149
114	0xbdd4ed8a	-0.103968695
115	0xbfa6767b	-1.3004907
116	0x3d77b6df	0.060477134
117	0xbe4b4755	-0.1985143
118	0x3db96454	0.09052339
119	0xbce26c8e	-0.027639654
120	0xbda26cb7	-0.07930892
121	0xbd25fb68	-0.040522963
122	0xc05a7722	-3.4135213
123	0x3da7a75e	0.0818622
124	0xbcb904a2	-0.022585217
125	0xbfd493e4	-1.6607633
126	0x3c8db71b	0.017299226
127	0x3d786467	0.060642626
128	0x3ce9acd2	0.02852479
129	0xbdaabd46	-0.08336882
130	0xbdb5ca07	-0.08876424
131	0x3c9cd674	0.019145228
132	0xbc9dda94	-0.019269265
133	0xbd8643a6	-0.06555872
134	0x3c466de1	0.012111158
135	0x3cc583fe	0.02411079
136	0x3f1d79a2	0.6151372
137	0xbd859b95	-0.065238155
138	0xbe11105e	-0.141664
139	0xbe41dbc4	-0.1893149
140	0xbd4fe23d	-0.050752867
141	0xbd2b8e25	-0.041883606
142	0x3d7a5c87	0.061123397
143	0x3f3bd77a	0.73375666
144	0xbde0e582	-0.10981275
145	0xbd24c96e	-0.04023116
146	0x3d01d7ca	0.031699933
147	0xbe74b4c9	-0.23897089
148	0x3e3164ff	0.17323683
149	0xbb561a68	-0.0032669548
150	0x3cb8f0cb	0.022575757
151	0x3d40c1b7	0.04705974
152	0xbcd5ebfa	-0.026113499
153	0x3d131643	0.035909902
154	0x3cbea23b	0.023270717
155	0xbd57929a	-0.052630045
156	0x3d48129e	0.04884588
157	0x3e3da90e	0.1852152
158	0x3cf3b89a	0.02975111
159	0xbd0310b7	-0.031998362
160	0xbd75f279	-0.060045693
161	0x3b5d7c88	0.003379615
162	0xbdf05f67	-0.117369466
163	0xbc387657	-0.011258683
164	0x3e8446c3	0.25835237
165	0xbc6b0e37	-0.014346651
166	0xbd7fcb00	-0.062449455
167	0x3e1a7ffe	0.15087888
168	0xbc6698b8	-0.014074497
169	0x3db513ed	0.08841691
170	0x3be4d9f5	0.0069839903
171	0x3d256886	0.040382884
172	0xbbad460e	-0.005287892
173	0xbcca8257	-0.024720354
174	0x3ba75423	0.0051064654
175	0x3d3ebdc6	0.0465677
176	0x3c8a2c92	0.016866956
177	0xbd3c96c8	-0.046042234
178	0xbddd7401	-0.108131416
179	0xbf0b3113	-0.54371756
180	0x3c9a660c	0.018847488
181	0xbe3f2855	-0.18667729
182	0x3d78cc39	0.060741637
183	0xbd82fbb9	-0.063956685
184	0x3d630f33	0.055434417
185	0x3d2ce5b7	0.04221126
186	0x4031b5d9	2.776724
187	0xbd30ab8f	-0.04313236
188	0xbc1e0a72	-0.009646045
189	0x3c8ac37e	0.016938921
190	0x3c08e3d6	0.008355102
191	0x3c20558e	0.009786023

fc3.bias f4 [3]
0	0x3f59b537	0.85042137
1	0x3f59a685	0.85019714
2	0x3f59c2d9	0.8506294
